weights/DV.npy (npy, 22920 bytes, 1 tensors)

array f8 [2849, 1]
000000 14 d1 d5 60 91 4a d5 bf 98 00 4b a7 53 f5 25 40
       -0.33267626244129755 10.979153850465352
000010 2b 12 93 37 b1 ef d3 bf 41 45 04 26 72 f6 b4 bf
       -0.31150465419003365 -0.08188546589032787
000020 02 34 47 7e 18 40 cc 3f f9 12 36 75 8b 4f cb bf
       0.2207060448257892 -0.2133650133438534
000030 db 8a 8d 56 72 02 83 3f c8 94 b2 fc 18 01 9b 3f
       0.009282010332474602 0.026371374534069486
000040 46 17 67 37 63 61 c8 3f d4 60 ed 57 9c c5 fe 3f
       0.1904720325966826 1.9232448038729233
000050 e7 30 32 3d b4 3c e9 3f 69 48 8b 9d ad f4 d7 3f
       0.7886601634250184 0.37430897126353685
000060 77 93 40 95 05 da e8 3f 9c 6c 49 3d 82 23 e4 3f
       0.7766139903147707 0.6293345639236523
000070 2d 19 ee 42 c9 c3 c2 bf 1f 07 53 2e 4f 00 f0 3f
       -0.14659991996831803 1.0000755128425636
000080 af dc ef ff d6 fa d5 bf 31 2e 47 fb 5b 2c c7 bf
       -0.3434350489982973 -0.1810412384933087
000090 41 bc 3e 33 8f e2 cc bf 79 9d bd d6 2f 0f c8 3f
       -0.22566404344749638 0.18796346650490728
0000a0 d7 09 7d 2c aa 3a 74 3f b4 7c 7d 11 91 81 ca bf
       0.004938759557094183 -0.2070790610696115
0000b0 32 50 74 7f 50 25 ed 3f fc f1 fe 35 b7 e4 d2 bf
       0.9108049859373806 -0.29520969651255746
0000c0 f3 7e ce 47 7d f1 9d bf 3c a1 e0 c8 a2 d3 f9 3f
       -0.02924152136586051 1.6141689154411116
0000d0 21 98 7e 78 f7 bc cf bf 73 ab 6c 15 07 32 c3 bf
       -0.24795430549164713 -0.14996422334783296
0000e0 7f f2 43 56 70 7f 04 40 f0 36 bd 13 75 4c b9 3f
       2.5622259845243316 0.09882289630806063
0000f0 14 76 5d f4 b0 e0 a2 bf c5 68 d5 ff 11 8c f2 3f
       -0.03687050803158001 1.1591968530179184
000100 85 46 52 97 ea 2b 8a 3f a7 df ca 1c 5e 83 f3 3f
       0.012779076331102654 1.2195721745210706
000110 7f c1 d3 96 57 bd 10 40 c1 15 b8 96 9d f2 ca 3f
       4.184904438662101 0.2105290399487512
000120 4c 6d 18 d7 48 0a 0b 40 cc f2 f3 35 8b a1 ff 3f
       3.3800217441873084 1.976939402345283
000130 35 c7 dd 12 28 c6 ad 3f 6f 68 17 be 7c d3 d1 bf
       0.05815243940641183 -0.2785331589090054
000140 a9 e6 e4 b5 e4 34 b9 3f 6a f2 d9 23 c7 e9 e3 3f
       0.09846333924078955 0.6222873401853353
000150 5f da 5a 69 6d c5 c4 3f 7f 8a 25 6b 7b 6b a7 3f
       0.16227500576288187 0.04574189837400854
000160 78 06 16 9d c1 b6 d5 3f 0c 25 fd 7e 50 48 c5 3f
       0.3392795595210383 0.16626936150195382
000170 85 e1 31 1e 76 d2 d6 bf eb e2 ac 76 34 3b c7 bf
       -0.356595544325977 -0.18149429125494207
000180 8f 3c 4f b0 39 d1 89 bf 77 55 e5 f1 c4 54 cd bf
       -0.012606096928634151 -0.22914945422477803
000190 82 72 02 ce d2 3b b4 3f 35 91 cb 14 e4 2c c2 bf
       0.07903783349542873 -0.14199496283902993
0001a0 83 42 f4 75 da 25 e7 3f 4b a5 5e 0d 27 e7 d7 bf
       0.7233707717696948 -0.3734834318698474
0001b0 86 f9 80 c4 28 35 c7 3f 11 c5 ae 1c 8a 88 c3 3f
       0.18130979151642296 0.15260435486337845
0001c0 6f d6 d9 14 9e 22 c8 bf 1a 65 a2 e9 cd 5d d5 bf
       -0.1885564424334691 -0.333850362928915
0001d0 48 b8 64 73 d6 5a cc bf cb 57 ca 18 44 51 c0 3f
       -0.22152214655347024 0.12748004160374501
0001e0 51 20 e9 6a 52 e6 d3 bf 8d 22 26 48 fd e0 05 40
       -0.31093273582928754 2.734858096755778
0001f0 58 bf 43 0d e9 86 11 40 b8 64 cf 62 e4 4c 13 40
       4.381748397121406 4.825089973362246
000200 7b 40 8e b7 a7 d3 d4 3f 8f e0 73 12 50 73 d0 bf
       0.32541840482100043 -0.2570381336404432
000210 a5 b6 28 a6 97 45 6e 3f a5 cf ec 7e e2 b9 d4 3f
       0.0036952936072996594 0.32384550471328516
000220 bf 62 bf 0d 44 5b d7 3f 0a e2 33 72 cc cb b4 bf
       0.3649454244855796 -0.08123472011710234
000230 0c 71 a0 f5 5d c2 09 40 5d 8d 40 f7 be 62 e0 bf
       3.2199057759845626 -0.5120539502280895
000240 b6 fc 9e fa ca 65 c3 bf 7a 9b 6c 45 76 94 a0 3f
       -0.15154397237163203 0.03238267514671285
000250 09 32 ee aa 02 50 d0 bf 28 72 eb 34 1f 32 d2 bf
       -0.2548834485285459 -0.2843091980737733
000260 fe 03 56 37 08 01 c8 bf 7e c5 22 a2 5f c1 d8 bf
       -0.18753149702027366 -0.38680258592201955
000270 66 06 e3 8a a9 4c c5 bf f2 6e 74 1f 73 80 0d 40
       -0.1664020469816478 3.6877195794494293
000280 53 80 73 3d 57 a3 d1 bf fe 06 61 bb b6 72 c1 bf
       -0.27559453011600005 -0.13631328725210062
000290 28 66 6e f1 49 ec db 3f 09 77 0c df c6 8c c1 3f
       0.4362969262816443 0.1371086682419718
0002a0 b1 4b 78 6c aa 45 de 3f e2 4f 2f b1 98 67 c2 bf
       0.4730020579601684 -0.14378651286699468
0002b0 a6 ea 48 c8 83 2c f0 3f df eb 6e f0 58 a1 ac bf
       1.010867864954585 -0.055918483114019805
0002c0 ea 25 21 63 a5 47 c9 bf e2 bc 07 1a 5f 88 d0 bf
       -0.19749896374041437 -0.2583234552575516
0002d0 b0 6e 3a 91 4b 10 cb bf b2 f1 da 07 a0 e2 aa bf
       -0.21143478957389084 -0.052510262450116044
0002e0 19 63 12 5c 01 1e 03 40 71 35 d8 75 47 4d cf 3f
       2.3896510308371828 0.24454587225083516
0002f0 e5 9c d1 37 0f 05 e4 3f d9 2d 69 51 24 05 c7 3f
       0.6256176080904906 0.17984441733493275
000300 9a fa ce 11 51 d3 d2 bf a7 e9 be 3b 98 68 96 3f
       -0.2941477464591259 0.021883371969786982
000310 95 fb b5 4a 40 08 f2 3f c8 c1 7a 9c a8 1d d4 bf
       1.1270144384759295 -0.3143102195854479
000320 f4 0f 6a 00 42 dd dd bf f6 27 71 6f ca b8 b6 3f
       -0.46662950554332316 0.08875718327286095
000330 e6 1a 3d eb 8c c9 be bf 0c 2b 25 1d 66 5a c9 bf
       -0.12026291602260705 -0.19807125495056999
000340 3f db 26 30 76 b6 d4 bf 97 ad 77 e1 bc 10 11 40
       -0.32363657667467643 4.2663455228133875
000350 de c9 cd 3a 45 7a d0 bf fc dd f1 91 38 1e c7 bf
       -0.2574627947098217 -0.18060977102480524
000360 49 e5 58 1e 83 2a ea 3f 57 8b 5f 83 10 50 d4 3f
       0.81768947531888 0.317386749548111
000370 55 1f d0 6e eb af d7 bf 62 42 65 7a 5a 15 c8 bf
       -0.3701122839124669 -0.18815165497155123
000380 3c ae f8 b5 25 6d c8 bf 1f b5 80 2e b4 e4 d0 3f
       -0.19083091149637876 0.2639589742783119
000390 29 6f 0c 3f ef 91 8f 3f d3 d7 60 85 e0 70 d0 bf
       0.015415066825475403 -0.2568894674799342
0003a0 2f 90 3f 81 fd e8 7e 3f c2 4d 35 5a 78 61 e2 3f
       0.007546415570661976 0.5743982087973836
0003b0 aa 1b bb 13 54 dc f1 3f 28 a1 db 9e 98 49 87 bf
       1.1162911196458745 -0.011370842311820242
0003c0 f4 68 37 4b f3 8b eb 3f 12 c6 3b a8 0a 6f bf bf
       0.8608337849684902 -0.12278811080229726
0003d0 16 90 c0 6f f8 7a cb bf 77 6b c6 01 7d 73 bb bf
       -0.21469026047373124 -0.10723096173607681
0003e0 32 dc 9b 13 03 fd f1 3f 4a 33 62 4a c1 b0 b7 bf
       1.1242705121965284 -0.09254081789022198
0003f0 2b 17 e2 ce 75 74 e4 3f 74 8d c4 08 65 f3 d6 3f
       0.6392163315474354 0.35860563141087387
000400 ca c7 90 db ae bb dd 3f af 06 5f 45 6a 0f 9e bf
       0.46458026353786563 -0.02935567902000596
000410 42 a6 ee 0d 5d fb af bf 9d c6 e0 c8 74 cf bb 3f
       -0.06246462626525019 0.1086342802452926
000420 d4 26 78 65 ca b7 ca bf 7e 7d 9c 41 05 29 e6 3f
       -0.2087338443237089 0.6925073892088418
000430 ca ef e8 85 1f cf f9 3f 04 f6 5c f2 c7 fe 09 40
       1.613067172132093 3.2494048056239553
000440 b0 3a 47 de e7 71 cf bf c9 78 a4 69 ba e2 d3 bf
       -0.24566362718038226 -0.3107133895554282
000450 74 0a d5 21 37 93 ba 3f 44 2c 4d 92 71 ec d7 bf
       0.1038088281248209 -0.3738063744282878
000460 a7 d4 cf 7b b8 9b e0 3f 61 a9 95 da d7 62 02 40
       0.5190088670921299 2.2982632710383517
000470 d5 ef c7 6b 21 03 fe 3f 73 c2 b8 b5 f5 db fd 3f
       1.8757642946429673 1.8662011240486691
000480 a8 63 02 49 e0 61 ce 3f f9 5c 9c 9d 74 ac d9 3f
       0.23736194195660443 0.4011508502166659
000490 27 65 d5 67 a5 43 a8 bf dc 96 62 39 54 3f 0c 40
       -0.047391098904606736 3.5309223635875764
0004a0 c2 90 9f 26 d7 2e d4 bf 3b f6 89 18 31 d7 cc bf
       -0.31535891315276043 -0.225317131978885
0004b0 3e a7 14 f6 6d b0 c9 3f f4 6d 0c 4c 37 7d ba bf
       0.20069670215280583 -0.10347314459470863
0004c0 1e e1 0e d1 c3 d7 c5 bf 98 86 7c 44 13 40 f0 3f
       -0.17064712245861186 1.0156433749438403
0004d0 00 78 e9 b4 2a 7d fc 3f 89 c3 84 79 48 30 17 40
       1.7805583063959602 5.7971514689715
0004e0 92 36 b7 52 92 14 e5 3f 9e 2d da c3 6c 12 e7 3f
       0.6587611785450511 0.7209991288413453
0004f0 03 ad 73 7a 59 8f fe 3f 32 57 e3 dd 7b 19 10 40
       1.9099974425578814 4.024886576653261
000500 7d cd ad 81 46 50 8c bf 1e 26 8a b2 05 da 56 3f
       -0.013824988205419992 0.0013947539938804552
000510 98 89 bd 40 8e f1 f1 3f 4b da ab 9f 88 ed fd 3f
       1.121473553554642 1.8704916226539747
000520 f7 4c ef b8 d4 58 ca bf 93 49 ad e5 07 be ce 3f
       -0.20583590536134697 0.2401742812604196
000530 cb b6 57 db d9 2a c3 3f 51 59 d4 ed 69 36 d8 3f
       0.14974520883645534 0.3783211538842766
000540 d0 f5 0a 9c b8 19 b0 3f a0 9d 71 9f 05 a3 ef 3f
       0.06289247331274983 0.9886501421105329
000550 36 49 72 8e be ca e9 3f d2 eb 73 52 be 46 c3 3f
       0.8059990675122097 0.1505964186288496
000560 c3 57 e9 2b aa f3 b8 3f 17 f5 95 58 bd 7b 0a 40
       0.09746802875574105 3.3104197426570283
000570 2f ed 91 cc 03 8e b2 bf ed d1 bb 88 cd 59 ee 3f
       -0.07247947449098001 0.9484622641162425
000580 1a 8c 8d 6a 78 8f a8 3f 76 76 a0 cc 19 30 ce 3f
       0.047969592101047634 0.2358429192690214
000590 4c 83 78 f0 cb 89 c9 bf e2 9a 8c ca af 19 cb bf
       -0.1995177196668244 -0.21172139539813545
0005a0 e7 41 c6 78 6f 1e f4 3f c0 a2 27 f2 d5 3d ca 3f
       1.2574305265189822 0.20501207660642784
0005b0 33 cf 3a 6f 64 59 ba 3f fa 1f 84 13 36 79 71 3f
       0.1029265185887283 0.004265986666958094
0005c0 da 41 85 6e 32 bb 6d bf 1b f3 9d d6 02 a6 98 3f
       -0.003629301547484182 0.02407078204076916
0005d0 c0 05 5d 75 ca 64 c5 3f ae 29 3d 1c 1a 8c fd 3f
       0.16713839274056674 1.846704588230391
0005e0 8b 9d 01 ca 8c 77 e2 3f fb 12 80 b2 bd a0 07 40
       0.5770935006557222 2.953486818822396
0005f0 51 82 08 cd a2 af b7 bf f6 9e 9c 13 8c a3 dc bf
       -0.092523741776412 -0.4474821273347368
000600 4f f6 ba a9 f0 8c d2 3f 29 df 69 d2 a1 0a f1 3f
       0.2898523004076638 1.0650957316665404
000610 85 8b cf d2 2e bd c0 bf 2d 6f 62 37 48 4a a0 3f
       -0.13077340405933682 0.03181672741012984
000620 2a 47 65 30 32 ba d0 bf 36 1a 5f a6 0c ff e8 3f
       -0.2613645050633858 0.7811339616244541
000630 ca c0 06 90 aa a1 b3 3f 9a 13 11 72 14 15 ff 3f
       0.0766855813624289 1.942646451542919
000640 3b b3 b2 d9 7f 2c d6 3f a3 5d 7f 00 c0 0d ef 3f
       0.34646602878165184 0.9704284677235829
000650 0b 68 63 31 5f 34 e4 3f f6 72 12 f1 0a 64 c3 bf
       0.6313930477729185 -0.1514905621633244
000660 c1 c0 0a ff 9e 6d 01 40 9b c0 1d b6 a5 01 b7 bf
       2.1785259175449885 -0.0898688859576872
000670 25 ce e8 9e 99 28 d0 3f d9 12 15 21 ee c6 b6 3f
       0.2524780322885099 0.08897293384240913
000680 33 6e 37 63 ff ab da 3f f3 53 2e 0a 07 9b a9 bf
       0.41674790085901064 -0.050010890953821184
000690 05 ca de 43 33 f5 c1 bf 22 e5 c0 ce 9a f5 b5 bf
       -0.14029541791894942 -0.08577888057415753
0006a0 3e 6c 48 0f e1 c8 ca bf 46 12 54 6e e9 0d 4c 3f
       -0.20925534483180458 0.0008561506080303003
0006b0 31 ba 3a 65 bb 85 81 bf b5 b9 b7 72 95 75 c3 3f
       -0.008555854822899086 0.1520258722443494
0006c0 19 61 33 4c 61 c1 d7 bf c9 dd 06 07 4e bc 13 40
       -0.3711779827258553 4.933891401094521
0006d0 12 b8 79 9c e0 21 f5 3f a1 fa e8 01 98 ab 0a 40
       1.3207708465884065 3.33378602497335
0006e0 99 0c 9f 97 0f 6a a8 3f 09 cc d7 6c 26 9f de 3f
       0.04768418050618912 0.4784637511176589
0006f0 ff 9f 2a 78 88 a7 cf 3f 37 16 2a fb 20 f5 03 40
       0.24730020396714278 2.4946918127268662
000700 f3 76 c3 ea d4 02 b8 3f 6a c1 5d e7 bc 4b 08 40
       0.09379320842296206 3.0369813991057315
000710 20 13 af be 63 b2 ea 3f 97 93 13 8a e0 7b d3 bf
       0.8342760776800766 -0.304435858574203
000720 b1 ab 8d 5d 05 01 c7 3f 23 c0 bc 1c ea 4c db bf
       0.17971865718876992 -0.4265694885862123
000730 9a a8 2a 67 36 5a 90 bf 14 58 3e 53 56 bf b0 bf
       -0.015969133421699234 -0.0654195740920332
000740 6c 8d be 67 83 4d af bf f7 dc e0 1d 52 0d d2 bf
       -0.0611382545605704 -0.28206303518113834
000750 06 b3 c2 30 88 e3 de bf d1 3c 98 a8 01 03 a5 bf
       -0.48263745080730336 -0.041038562612919834
000760 4c 69 08 12 5d 17 e1 3f a9 e6 e0 f9 c2 ea da 3f
       0.534101996632026 0.4205787124843519
000770 b7 38 d9 1c 0d 49 c0 bf da b4 db 1f 93 d5 d2 3f
       -0.1272293463575289 0.29428556548266516
000780 3d f2 25 50 84 67 c4 bf 9f d8 3b 15 57 ce d7 3f
       -0.1594090834950225 0.371969004379375
000790 ae 41 00 18 eb 91 d3 3f 61 fc 08 32 d7 5f d2 3f
       0.305781148375014 0.2870996464370759
0007a0 de 5d 1e 0c 5d 0c ce bf 60 b0 3d ed 2e e2 db 3f
       -0.23475230304460032 0.435680133515012
0007b0 bf 7f e5 4e 32 65 c7 bf fd e2 18 b1 a6 53 eb 3f
       -0.1827757725941392 0.8539613207750275
0007c0 b7 2f c5 4b 5f 53 b4 3f b0 f6 b7 04 e8 33 b0 bf
       0.07939715957507941 -0.0632920276184119
0007d0 b2 f8 a0 24 15 f5 da bf b3 88 0e 96 a8 90 c4 bf
       -0.4212086541846346 -0.16066462828627479
0007e0 9b 0d 86 31 26 b3 c2 bf 5f d8 c3 d6 03 5f cf bf
       -0.14609219949862226 -0.24508712755749948
0007f0 0a de e8 ac d3 b4 df bf 05 44 c5 32 c6 6a d8 3f
       -0.4954117954798397 0.3815169807249393
